…
     "output_type": "execute_result"
    }
   ],
   "source": [
    "tuner.get_best_hyperparameters()[0].values"
   ]
  },
  {
   "cell_type": "code",
   "execution_count": 22,
   "id": "47fbd017",
   "metadata": {},
   "outputs": [
    {
     "name": "stdout",
     "output_type": "stream",
     "text": [
      "Model: \"sequential\"\n",
      "_________________________________________________________________\n",
      " Layer (type)                Output Shape              Param #   \n",
      "=================================================================\n",
      " conv2d (Conv2D)             (None, 250, 250, 24)      3552      \n",
      "                                                                 \n",
      " max_pooling2d (MaxPooling2D  (None, 125, 125, 24)     0         \n",
      " )                                                               \n",
      "                                                                 \n",
      " conv2d_1 (Conv2D)           (None, 121, 121, 32)      19232     \n",
      "                                                                 \n",
      " max_pooling2d_1 (MaxPooling  (None, 60, 60, 32)       0         \n",
      " 2D)                                                             \n",
      "                                                                 \n",
      " conv2d_2 (Conv2D)           (None, 58, 58, 64)        18496     \n",
      "                                                                 \n",
      " max_pooling2d_2 (MaxPooling  (None, 29, 29, 64)       0         \n",
      " 2D)                                                             \n",
      "                                                                 \n",
      " conv2d_3 (Conv2D)           (None, 27, 27, 96)        55392     \n",
      "                                                                 \n",
      " max_pooling2d_3 (MaxPooling  (None, 13, 13, 96)       0         \n",
      " 2D)                                                             \n",
      "                                                                 \n",
      " flatten (Flatten)           (None, 16224)             0         \n",
      "                                                                 \n",
      " dense (Dense)               (None, 250)               4056250   \n",
      "                                                                 \n",
      " dense_1 (Dense)             (None, 2)                 502       \n",
      "                                                                 \n",
      "=================================================================\n",
      "Total params: 4,153,424\n",
      "Trainable params: 4,153,424\n",
      "Non-trainable params: 0\n",
      "_________________________________________________________________\n"
     ]
    }
   ],
   "source": [
    "model=tuner.get_best_models(num_models=1)[0]\n",
…
